…
      tf.keras.layers.Dense(10, activation = 'softmax')
    ])

    #declare adam optimizer with learning rate of 0.0005
    adam = optimizers.Adam(learning_rate=0.0005)

    #compile the model
    model.compile(optimizer=adam, loss= 'categorical_crossentropy', metrics= ['accuracy'])

    return model
In [221]:
# Build the model
model_2 = nn_model_2()
In [222]:
#Print the model summary
model_2.summary()
Model: "sequential"
_________________________________________________________________
 Layer (type)                Output Shape              Param #   
=================================================================
 dense (Dense)               (None, 256)               262400    
                                                                 
 dense_1 (Dense)             (None, 128)               32896     
                                                                 
 dropout (Dropout)           (None, 128)               0         
                                                                 
 dense_2 (Dense)             (None, 64)                8256      
                                                                 
 dense_3 (Dense)             (None, 64)                4160      
                                                                 
 dense_4 (Dense)             (None, 32)                2080      
                                                                 
 batch_normalization (BatchN  (None, 32)               128       
 ormalization)                                                   
                                                                 
 dense_5 (Dense)             (None, 10)                330       
                                                                 
=================================================================
Total params: 310,250
Trainable params: 310,186
Non-trainable params: 64
_________________________________________________________________
In [223]:
# Fit the model
history_model_2 = model_2.fit(X_train,y_train, epochs=30, validation_split=0.2, batch_size=128, verbose = 1)
…
    #declare adam optimizer with learning rate of 0.001
    adam = optimizers.Adam(learning_rate = 0.001)

    #compile the model
    model.compile(
        loss='categorical_crossentropy',
        optimizer=adam,
        metrics=['accuracy']
    )

    return model
In [242]:
# Build the model

model_3 = cnn_model_1()
In [243]:
# Print the model summary
model_3.summary()
Model: "sequential_2"
_________________________________________________________________
 Layer (type)                Output Shape              Param #   
=================================================================
 conv2d_2 (Conv2D)           (None, 32, 32, 16)        160       
                                                                 
 leaky_re_lu_3 (LeakyReLU)   (None, 32, 32, 16)        0         
                                                                 
 conv2d_3 (Conv2D)           (None, 32, 32, 32)        4640      
                                                                 
 leaky_re_lu_4 (LeakyReLU)   (None, 32, 32, 32)        0         
                                                                 
 max_pooling2d_1 (MaxPooling  (None, 16, 16, 32)       0         
 2D)                                                             
                                                                 
 flatten_1 (Flatten)         (None, 8192)              0         
                                                                 
 dense_8 (Dense)             (None, 32)                262176    
                                                                 
 leaky_re_lu_5 (LeakyReLU)   (None, 32)                0         
                                                                 
 dense_9 (Dense)             (None, 10)                330       
                                                                 
=================================================================
Total params: 267,306
Trainable params: 267,306
Non-trainable params: 0
_________________________________________________________________
In [187]:
# Fit the model

history_model_3 = model_3.fit(X_train, y_train, epochs=20, validation_split=0.2, batch_size = 32, verbose=1)
…
    model.add(Dense(10, activation='softmax'))

    #declare adam optimizer with learning rate of 0.001
    adam = Adam(learning_rate = 0.001)

    #compile the model
    model.compile(loss = 'categorical_crossentropy', optimizer=adam, metrics=['accuracy'])

    return model
In [248]:
# Build the model

model_4 = cnn_model_2()
In [249]:
# Print the summary

model_4.summary()
Model: "sequential"
_________________________________________________________________
 Layer (type)                Output Shape              Param #   
=================================================================
 conv2d (Conv2D)             (None, 32, 32, 16)        160       
                                                                 
 leaky_re_lu (LeakyReLU)     (None, 32, 32, 16)        0         
                                                                 
 conv2d_1 (Conv2D)           (None, 32, 32, 32)        4640      
                                                                 
 leaky_re_lu_1 (LeakyReLU)   (None, 32, 32, 32)        0         
                                                                 
 max_pooling2d (MaxPooling2D  (None, 16, 16, 32)       0         
 )                                                               
                                                                 
 batch_normalization (BatchN  (None, 16, 16, 32)       128       
 ormalization)                                                   
                                                                 
 conv2d_2 (Conv2D)           (None, 16, 16, 32)        9248      
                                                                 
 leaky_re_lu_2 (LeakyReLU)   (None, 16, 16, 32)        0         
                                                                 
 conv2d_3 (Conv2D)           (None, 16, 16, 64)        18496     
                                                                 
 leaky_re_lu_3 (LeakyReLU)   (None, 16, 16, 64)        0         
                                                                 
 max_pooling2d_1 (MaxPooling  (None, 8, 8, 64)         0         
 2D)                                                             
                                                                 
 batch_normalization_1 (Batc  (None, 8, 8, 64)         256       
 hNormalization)                                                 
                                                                 
 flatten (Flatten)           (None, 4096)              0         
                                                                 
 dense (Dense)               (None, 32)                131104    
                                                                 
 leaky_re_lu_4 (LeakyReLU)   (None, 32)                0         
                                                                 
 dropout (Dropout)           (None, 32)                0         
                                                                 
 dense_1 (Dense)             (None, 10)                330       
                                                                 
=================================================================
Total params: 164,362
Trainable params: 164,170
Non-trainable params: 192
_________________________________________________________________
In [250]:
# Fit the model

history_model_4 = model_4.fit(X_train, y_train, epochs = 30, validation_split=0.2, batch_size = 128, verbose=1)
…
